snakelearning/model/model.pth (torch, 17216 bytes, 4 tensors)

linear1.weight f4 [256, 11]
0.3970987 -0.48054278 -0.5015172 0.23346286 0.029422577 -0.33029723 -0.69568574 -0.58115095
-0.9309411 0.10644964 0.3226522 0.3274139 1.0222629 0.0351277 -0.06973813 -0.10364663
-0.14599459 -0.07182725 0.6051139 0.5572011 0.5578042 0.5152116 0.6794169 -0.3413891
-0.25829655 -0.5758262 0.027397068 -0.5141362 0.120472714 0.22446166 -0.45671758 0.0934345
-0.23326653 0.11204306 -0.10865123 0.17938913 -0.92453307 -0.93131995 0.5267734 0.5459757
-0.7390778 -0.7897547 0.8871574 0.8495125 -0.41237652 0.87113756 -0.09136383 -0.07695118
0.2765257 -0.5638501 0.25292116 -0.5397462 -0.053060364 -0.54214996 -0.8108216 -0.15362047
-0.08445196 -0.087258525 0.09485913 0.05920829 -0.2539712 -0.07710137 -0.029604701 -0.11856085
-0.2892051 -0.16563627 0.4595574 0.39342016 0.75146806 -0.42722014 -0.3015709 -0.030320527
0.09469814 0.0042513725 0.05512877 0.00041289633 0.16043241 0.044888347 -0.21578622 -0.22049281
-0.3210149 -0.16972996 -0.09648979 -0.008853776 0.0058731493 0.0337727 0.28765017 0.33756655
0.3823399 0.18109038 -0.38535556 -0.88272613 0.1374676 0.22202076 -1.2113775 0.13208231
-0.92030174 -0.9425056 0.25775602 0.9425689 -0.32497233 -0.27614245 -0.20910247 -0.016968718
-0.5493544 -0.53856087 -0.29830036 -0.65792686 0.1611726 0.283779 -0.46975473 0.9277461
0.2761667 -0.0038047656 -0.15920867 0.03570637 -0.26542935 -0.10249787 -0.46549425 -0.32110548
-0.044157315 0.06075841 0.715101 0.14064695 0.32710254 0.33882758 -0.75692785 0.783729
-0.64855784 0.20476465 -0.7159836 0.5122289 -0.8213091 -0.19655688 0.22994764 -0.44733205
0.7731312 -0.07906332 -0.51774514 -0.6655254 0.38687274 -1.0823587 -0.39781317 0.33358634
0.15424314 -0.02197158 0.6322782 0.49099627 -0.77003616 -0.84221846 0.40003967 0.538577
-0.93478703 -0.83564764 -0.6203379 0.7038634 0.6242421 -0.14724141 -0.34402066 0.17599508
-0.2070037 -0.1792954 -0.39045852 -0.25227568 -0.41507083 -0.18946452 1.8282413 -0.5819456
-0.3708007 -0.22043 -0.12735161 -0.13636303 -0.41447663 -0.5282404 -0.42615795 -0.48691946
-0.12688568 0.30203697 0.11702865 -0.17850308 -0.07959284 -0.75278467 -0.16698071 -0.18045622
-0.0037013863 0.23766144 -0.6397207 0.7429114 -0.058681704 -0.28728545 -0.17228836 -0.20178291
-0.64821285 -0.044587065 -0.29572222 -0.076048955 0.14415205 -0.3548448 0.46123612 0.39952743
0.17180076 -0.08142779 -0.11684221 -0.14039549 -0.102320485 0.50686926 0.51334476 0.52937865
0.52789074 0.0060458397 0.0387893 0.19773033 -0.5502102 -0.03633008 -0.07833283 -0.9651213
0.020105787 -0.6951414 -0.27933928 0.28373253 0.31710464 -0.2933328 0.60295033 -0.27113307
-0.33479735 -0.31174213 -0.30700958 -0.36603275 -0.23409013 -0.22899811 -0.2559855 0.46313673
0.7122218 -1.047442 0.0045919744 -0.14192294 -0.019726135 -0.0006620847 0.033487108 -0.08155828
0.03422682 -0.00012226727 0.74592286 0.113247335 -0.61747843 0.016954834 -0.54908794 0.18718256
-0.27587065 -0.4892956 0.11023152 -0.5176745 -0.21909508 0.391948 -1.161153 0.119498484
00000000: 8550 cb3e b409 f6be 6e63 00bf e310 6f3e
00000010: 9e07 f13c b81c a9be 7618 32bf 4fc6 14bf
00000020: 2852 6ebf 4502 da3d ab32 a53e cba2 a73e
00000030: 83d9 823f 10e2 0f3d ddd2 8ebd af44 d4bd
00000040: 9b7f 15be 2a1a 93bd bfe8 1a3f bba4 0e3f
00000050: 42cc 0e3f e8e4 033f 44ee 2d3f 8dca aebe
00000060: 723f 84be 5969 13bf d16f e03c 6e9e 03bf
00000070: 66ba f63d 47d9 653e e3d6 e9be 965a bf3d
00000080: 6cdd 6ebe d576 e53d 8984 debd c9b1 373e
00000090: 33ae 6cbf fc6a 6ebf 9fda 063f 10c5 0b3f
000000a0: 3434 3dbf 5d2d 4abf bf1c 633f a779 593f
000000b0: 0423 d3be df02 5f3f f61c bbbd 9598 9dbd
000000c0: c794 8d3e 7b58 10bf e27e 813e cf2c 0abf
000000d0: d355 59bd 57ca 0abf 0192 4fbf af4e 1dbe
000000e0: 26f5 acbd 99b4 b2bd 8145 c23d 6484 723d
000000f0: 8308 82be 53e7 9dbd 8f85 f2bc 08d0 f2bd
00000100: b112 94be 8e9c 29be 1c4b eb3e 5e6e c93e
00000110: 3660 403f 99bc dabe 8067 9abe c162 f8bc
00000120: 19f1 c13d 194f 8b3b b5ce 613d 027a d839
00000130: 6548 243e d8dc 373d 10f7 5cbe dec8 61be
00000140: 115c a4be b1cd 2dbe 709c c5bd 6e0f 11bc
00000150: 8c73 c03b 3e55 0a3d e246 933e 86d5 ac3e
00000160: 0ec2 c33e c26f 393e 534d c5be 57fa 61bf
00000170: 4ec4 0c3e 6959 633e 6b0e 9bbf 9640 073e
00000180: e598 6bbf 0c48 71bf 99f8 833e 324c 713f
00000190: c662 a6be 8b62 8dbe f51e 56be fb01 8bbc
000001a0: 7da2 0cbf 20df 09bf d3ba 98be e56d 28bf
000001b0: 6e0a 253e 7b4b 913e b183 f0be c580 6d3f
000001c0: b965 8d3e 6059 79bb 9907 23be d840 123d
000001d0: 5be6 87be 67ea d1bd 4355 eebe f067 a4be
000001e0: 4dde 34bd cfdd 783d dc10 373f c105 103e
000001f0: fc79 a73e cf7a ad3e 06c6 41bf 77a2 483f
00000200: e307 26bf d3ad 513e b44a 37bf 6f21 033f
00000210: 5041 52bf 3546 49be 6577 6b3e b508 e5be
00000220: edeb 453f f3eb a1bd f28a 04bf df5f 2abf
00000230: 2f14 c63e bb8a 8abf 2bae cbbe d4cb aa3e
00000240: eaf1 1d3e befd b3bc fcdc 213f dd63 fb3e
00000250: 1721 45bf a19b 57bf 00d2 cc3e 2fe0 093f
00000260: 344e 6fbf 01ed 55bf 77ce 1ebf 6430 343f
00000270: 55ce 1f3f 74c6 16be 7a23 b0be 0e38 343e
00000280: c7f8 53be 3799 37be 2eea c7be 472a 81be
00000290: 2a84 d4be fd02 42be d003 ea3f 63fa 14bf
000002a0: 97d9 bdbe 67b8 61be 7668 02be c0a2 0bbe
000002b0: 4836 d4be c33a 07bf 6031 dabe 824d f9be
000002c0: 52ee 01be 97a4 9a3e b8ac ef3d 83c9 36be
000002d0: 9201 a3bd 7fb6 40bf fefc 2abe 84c9 38be
000002e0: f592 72bb 855d 733e bcc4 23bf 712f 3e3f
000002f0: 3a5c 70bd 1417 93be 5c6c 30be 2ea0 4ebe
00000300: 47f1 25bf eda0 36bd e768 97be 8ebf 9bbd
00000310: 989c 133e 38ae b5be 2427 ec3e dc8e cc3e
00000320: 8aec 2f3e 9dc3 a6bd f84a efbd d6c3 0fbe
00000330: 678d d1bd 2fc2 013f 906a 033f 5c85 073f
00000340: d923 073f 2e1c c63b 87e1 1e3d d279 4a3e
00000350: 93da 0cbf dace 14bd f66c a0bd 3112 77bf
00000360: e4b4 a43c c9f4 31bf 8f05 8fbe 6445 913e
00000370: 8a5b a23e b72f 96be f45a 1a3f f4d1 8abe
00000380: 8f6a abbe aa9c 9fbe 5c30 9dbe a568 bbbe
00000390: 53b5 6fbe 7b7e 6abe 8810 83be 4220 ed3e
000003a0: 2b54 363f 9412 86bf 4678 963b 3f54 11be
000003b0: b498 a1bc c18f 2dba c729 093d 0708 a7bd
000003c0: 6c31 0c3d df34 00b9 cdf4 3e3f 38ee e73d
000003d0: 1113 1ebf dde4 8a3c 0791 0cbf c9ac 3f3e
000003e0: eb3e 8dbe f484 fabe 10c1 e13d 5186 04bf
000003f0: 765a 60be 69ad c83e a9a0 94bf 9fbb f43d

linear1.bias f4 [256]
-0.38431656 0.004120238 -0.18344752 0.004439361 -0.018066255 -0.1906631 -0.37179646 -0.41024902
-0.120358095 -0.12827186 -0.27179697 0.22832382 -0.07843598 0.21756221 -0.2919679 -0.47663248
-0.68472177 -0.4310274 0.12394819 -0.5654282 -0.50937015 -0.3140714 -0.35341147 -0.21705016
-0.05069774 0.2867933 -0.33753666 -0.18999487 -0.32702434 -0.0046812403 -0.4210228 -0.35246435
-0.28782657 -0.3756549 -0.26999825 -0.45496115 -0.18522526 -0.23302017 -0.328854 -0.19942807
-0.48159745 -0.56114143 -0.67134124 0.22159462 -0.17463431 -0.24790566 -0.68701875 -0.2989148
-0.42878002 -0.2898597 -0.3261726 -0.3288742 -0.43712553 -0.20854892 -0.41067958 -0.15488483
-0.63737386 -0.3453312 -0.35135886 -0.539336 -0.12365983 -0.11657078 -0.2731011 0.19977146
0.18062462 -0.6575848 0.011396308 -0.12492482 -0.06864229 -0.21437134 -0.24700989 -0.44888678
-0.03421333 -0.28107956 -0.36340213 -0.4573037 -0.196177 -0.37628332 -0.09244099 -0.2954993
-0.3266306 -0.0987191 -0.72225946 -0.44071576 -0.6398727 -0.44047025 0.3751292 0.0030943668
-0.16181172 -0.31760937 -0.10311175 -0.44423488 0.03184784 -0.083156735 -0.28539678 -0.703967
0.122076385 -0.53310937 -0.015988506 -0.57119316 -0.3429011 -0.3902098 -0.6942585 -0.27036306
-0.45536354 -0.8071341 -0.43774033 -0.07422186 0.04368239 0.0023664457 -0.2888832 -0.043280866
-0.27707508 -0.54912674 -0.39056918 -0.20874077 -0.20833409 -0.39551693 -0.43290246 0.14749725
-0.093525454 -0.36886814 -0.39536062 -0.047694568 -0.22388393 -0.2491033 0.22703674 -0.105157085
-0.29949525 0.14435841 0.006340431 0.06396001 -0.54161733 -0.16298391 -0.019064046 -0.2134258
-0.6110557 -0.58602196 -0.32275757 0.037907787 0.09629424 0.07428422 0.037714824 -0.39471647
-0.28647143 -0.61896855 -0.6793428 0.034752544 0.06165676 -0.3123979 0.08179483 -0.39556473
-0.47440708 -0.14200324 0.022773342 0.37503636 0.076678574 -0.54922086 -0.39411825 -0.36884683
0.35397655 -0.4505114 -0.41640788 -0.7373172 0.41667807 -0.510334 -0.4413849 -0.14506418
-0.03045977 0.052987956 -0.5815567 -0.36231625 -0.29638663 0.0900815 0.35483885 0.03878571
-0.31458664 -0.15140232 -0.3258385 -0.31134957 -0.14197765 0.011951738 -0.76323813 0.003606964
-0.38228792 -0.21782833 -0.24679036 -0.5451359 -0.55577356 0.4857384 0.23485042 -0.22471192
-0.3244586 -0.25860828 0.06298259 -0.22044802 -0.11293857 -0.47690633 0.42623493 -0.37435022
0.2691407 -0.34582672 -0.18180382 -0.38578922 -0.034958575 -0.09639788 -0.28100452 -0.009260826
-0.20934142 -0.029949993 -0.13727911 -0.53912914 -0.3106495 -0.3348953 -0.2874738 -0.13751958
0.07115573 -0.1790508 -0.15359984 -0.44152647 -0.577184 -0.28853306 -0.3087361 -0.17393841
0.08455095 -0.17517677 -0.48128787 -0.43843666 -0.22929503 -0.02401621 -0.51378727 -0.641059
0.4194339 0.038978413 -0.23781492 -0.58515954 0.55678546 -0.23435494 -0.61429775 -0.2917041
-0.343541 -0.032736674 -0.354534 0.6432025 0.0699181 -0.23508082 -0.6151368 -0.1938153
-0.23193555 -0.26667964 -0.32533595 -0.6516491 0.0055905525 -0.122829296 -0.3557717 -0.011988489
00000000: 24c5 c4be 1003 873b abd9 3bbe 0f78 913b
00000010: afff 93bc 303d 43be 1b5c bebe 290c d2be
00000020: 4e7e f6bd b359 03be f928 8bbe b8cd 693e
00000030: 0ba3 a0bd a1c8 5e3e d17c 95be 2c09 f4be
00000040: ed49 2fbf a0af dcbe 8cd8 fd3d e7bf 10bf
00000050: 1566 02bf f7cd a0be 59f2 b4be 6642 5ebe
00000060: 6fa8 4fbd 92d6 923e 9bd1 acbe 048e 42be
00000070: bc6f a7be 1765 99bb 4d90 d7be 3576 b4be
00000080: 015e 93be d755 c0be 363d 8abe abf0 e8be
00000090: b1ab 3dbe d79c 6ebe 8d5f a8be df36 4cbe
000000a0: f193 f6be f7a6 0fbf 05dd 2bbf b3e9 623e
000000b0: 56d3 32be fbda 7dbe 76e0 2fbf 5c0b 99be
000000c0: 0e89 dbbe 7e68 94be 1800 a7be 3362 a8be
000000d0: ebce dfbe d98d 55be 9844 d2be 219a 1ebe
000000e0: ef2a 23bf 40cf b0be 4fe5 b3be ed11 0abf
000000f0: 5d41 fdbd a9bc eebd e8d3 8bbe e490 4c3e
00000100: a9f5 383e 7a57 28bf 95b7 3a3c 96d8 ffbd
00000110: 5494 8cbd 2984 5bbe 29f0 7cbe 7dd4 e5be
00000120: 4723 0cbd a9e9 8fbe d80f babe b623 eabe
00000130: a0e2 48be 35a8 c0be b451 bdbd af4b 97be
00000140: 203c a7be 3d2d cabd ffe5 38bf 7fa5 e1be
00000150: b3ce 23bf 5185 e1be ef10 c03e dcca 4a3b
00000160: f9b1 25be b29d a2be 412c d3bd c172 e3be
00000170: e172 023d 144e aabd 871f 92be 2e37 34bf
00000180: 2f03 fa3d db79 08bf 54fa 82bc b739 12bf
00000190: bc90 afbe 94c9 c7be edba 31bf 076d 8abe
000001a0: 6925 e9be 57a0 4ebf 801f e0be a101 98bd
000001b0: 4eec 323d 5f16 1b3b 80e8 93be 4747 31bd
000001c0: c9dc 8dbe 9293 0cbf aff8 c7be 24c0 55be
000001d0: 8855 55be 3281 cabe 64a5 ddbe 8509 173e
000001e0: 468a bfbd 49dc bcbe b56c cabe 615b 43bd
000001f0: d441 65be ef14 7fbe 527c 683e 995c d7bd
00000200: 7157 99be b1d2 133e 64c3 cf3b 77fd 823d
00000210: 6fa7 0abf 41e5 26be 342c 9cbc 4b8c 5abe
00000220: 256e 1cbf 8905 16bf 7b40 a5be 3245 1b3d
00000230: ea35 c53d 5322 983d dc7a 1a3d 4718 cabe
00000240: 62ac 92be b974 1ebf 69e9 2dbf af58 0e3d
00000250: cc8b 7c3d 9ef2 9fbe 0c84 a73d 7687 cabe
00000260: 7ce5 f2be 4c69 11be 298f ba3c c404 c03e
00000270: a809 9d3d bd99 0cbf dec9 c9be 7ed9 bcbe
00000280: 6a3c b53e 6ea9 e6be 6a33 d5be d2c0 3cbf
00000290: d456 d53e 40a5 02bf 34fd e1be b48b 14be
000002a0: c486 f9bc e609 593d e6e0 14bf 8481 b9be
000002b0: fdbf 97be a67c b83d 70ad b53e c4dd 1e3d
000002c0: 8011 a1be 3609 1bbe 4ed4 a6be 3669 9fbe
000002d0: 9762 11be 39d1 433c 9363 43bf d062 6c3b
000002e0: 3ebb c3be 640e 5fbe 9db6 7cbe 078e 0bbf
000002f0: 2d47 0ebf b4b2 f83e a17c 703e e21a 66be
00000300: 701f a6be 4e68 84be 04fd 803d 20bd 61be
00000310: 564c e7bd 112d f4be 773b da3e d5aa bfbe
00000320: cfcc 893e 3310 b1be c82a 3abe 2a86 c5be
00000330: b930 0fbd 406c c5bd d3df 8fbe b8ba 17bc
00000340: 995d 56be b059 f5bc e592 0cbe 5e04 0abf
00000350: 740d 9fbe 6677 abbe c42f 93be efd1 0cbe
00000360: 18ba 913d 1859 37be 4749 1dbe c20f e2be
00000370: 55c2 13bf 9bba 93be a812 9ebe e91c 32be
00000380: 0c29 ad3d 8a61 33be 5d6b f6be c57a e0be
00000390: 51cc 6abe a5bd c4bc 9087 03bf 711c 24bf
000003a0: 0ac0 d63e d4a7 1f3d c185 73be 04cd 15bf
000003b0: 7e89 0e3f befa 6fbe 9e42 1dbf 3d5a 95be
000003c0: 9be4 afbe e416 06bd 7b85 b5be eba8 243f
000003d0: 3931 8f3d 07b9 70be 9b79 1dbf 8577 46be
000003e0: 8380 6dbe 3c8a 88be 6f92 a6be 7ad2 26bf
000003f0: f430 b73b ed8d fbbd b527 b6be 5e6b 44bc

linear2.weight f4 [3, 256]
0.26687473 -0.3631792 -0.33509657 -0.5705325 0.09392862 0.029207706 -0.10938724 -0.09210329
-0.21326095 0.13593975 -0.21469297 0.79389876 -0.41802803 -0.45447314 -0.22761664 0.090696424
-0.11034189 -0.14374106 -0.32906657 -0.12653819 -0.15142095 0.22715826 -0.16596855 -0.16546747
0.6776021 0.07502867 0.010099884 -0.30161348 -0.028373957 0.26270592 0.13371256 0.35553154
-0.043520626 -0.123740315 0.27232265 0.062389884 -0.9058837 0.009490914 -0.008695796 0.19296746
-0.15521336 -0.23224297 -0.025367709 -0.8375735 -0.04648541 -0.026571022 -0.33582985 -0.08067418
0.02567408 -0.04775826 -0.1379615 -0.18904702 -0.086399384 0.070650786 0.020916717 -0.1383998
-0.053845916 -0.21796128 0.2684764 0.054847684 -0.37565342 0.0045553045 -0.28657153 0.011063255
0.28731203 -0.08430871 0.020114297 0.27873012 0.10548421 -0.2912321 0.09412579 0.07847237
0.04518403 -1.0675293 -0.58658713 0.26855043 0.26148918 -0.66465944 0.026137248 -0.2286772
-0.051738705 -0.7175302 0.1530735 -0.56705415 -0.25029272 -0.28159228 -0.0066621387 0.16501246
0.27597842 -0.74987066 0.10616863 0.03461764 -0.43478316 0.6129061 -0.3470272 -0.9641482
-0.24860586 3.2801763e-05 -0.899038 -0.06948004 -0.26199874 0.051935807 -0.16136064 -0.03130944
0.05823907 -0.2038739 -0.06487899 0.20554157 -0.5906147 -0.7716283 -0.03644821 -0.568591
0.4250977 -0.08053865 -0.60449296 0.02008392 -1.2167327 -0.21680881 0.10659008 0.5066448
-1.7547928 0.07723027 -0.030533038 0.06730023 -0.025853204 0.05362425 -1.0787295 0.20642757
0.053947102 0.04515355 0.020132976 -0.6005652 -0.017001357 -0.35056308 0.06867553 -0.023626413
-0.016585689 -0.5219835 -0.33852327 -0.82381225 0.47710702 0.17079192 0.29875582 -0.10433565
0.13068084 0.0057115443 -0.17697324 0.5450388 0.17991221 -0.36721286 0.50602067 -0.10011289
-0.1995518 0.21790011 0.4370499 -0.37757206 0.55936563 0.03152229 0.12230055 -0.21232091
-1.1546383 -0.10403755 0.034628574 -0.21542189 0.8788267 -0.20307814 -0.75847214 0.17918533
0.2797939 0.56725913 -0.124543734 -0.10457847 -0.3526785 -0.0916611 0.5100131 -0.88797444
-0.012696736 -0.29473916 -0.87506187 -0.11074478 0.18067442 -0.804396 -0.1092882 0.04401194
0.105275884 0.44568112 -0.87488955 -0.14611927 -0.031162038 0.09253395 -0.01765198 -0.051282965
-0.050264083 0.05487764 -0.6943794 0.033812907 0.18802716 -0.36005938 -0.32617787 0.19245405
0.03460361 -0.12576567 -0.08303036 0.041334253 -0.11521322 -0.25317046 -0.3286227 0.10491534
-0.022547811 0.1876789 -0.30285537 0.14087602 -0.21470647 -0.07712812 -0.5818247 -0.2985943
0.6957936 -0.015717447 -0.36931664 -0.033360016 -0.20408273 -0.03469321 0.21620953 -0.059031047
-0.15879759 -0.10781726 -0.11679465 -1.1745741 -0.01743945 -0.3264765 -0.14243971 -0.08141898
0.54528 0.30314335 -0.3089184 -1.2468919 0.85898346 0.0015089583 -0.32807216 -0.17746086
-0.015807072 0.43536395 -0.024338868 -0.023373514 -0.7056129 -1.5847278 -0.14163737 -0.20143467
0.032946818 -0.06623777 -0.24894212 -0.39778042 0.2943436 -0.33290294 -0.21293166 -0.71717197
00000000: cea3 883e a0f2 b9be c791 abbe 6b0e 12bf
00000010: a65d c03d 0045 ef3c 6b06 e0bd a6a0 bcbd
00000020: 1461 5abe ca33 0b3e 79d8 5bbe f33c 4b3f
00000030: c507 d6be b4b0 e8be 5614 69be 0cbf b93d
00000040: eefa e1bd db30 13be 6a7b a8be 3a93 01be
00000050: 180e 1bbe 2d9c 683e a9f3 29be 4e70 29be
00000060: 5577 2d3f a2a8 993d fc79 253c 156d 9abe
00000070: 8070 e8bc 6481 863e f2eb 083e 3b08 b63e
00000080: af42 32bd 906b fdbd e06d 8b3e 898c 7f3d
00000090: ffe7 67bf c77f 1b3c d078 0ebc 4399 453e
000000a0: 40f0 1ebe 1ad1 6dbe f1cf cfbc 386b 56bf
000000b0: 7c67 3ebd 79ab d9bc e4f1 abbe 8138 a5bd
000000c0: 7352 d23c 2a9e 43bd c845 0dbe 8b95 41be
000000d0: 29f2 b0bd 5cb1 903d 8959 ab3c adb8 0dbe
000000e0: 898d 5cbd 3e31 5fbe bd75 893e f7a7 603d
000000f0: a555 c0be aa44 953b 81b9 92be a842 353c
00000100: 901a 933e 0caa acbd bdc6 a43c b7b5 8e3e
00000110: 1b08 d83d 601c 95be 06c5 c03d 1fb6 a03d
00000120: e412 393d cda4 88bf 932a 16bf 717f 893e
00000130: e9e1 853e 1f27 2abf c81d d63c 5b2a 6abe
00000140: f7eb 53bd 0fb0 37bf 4dbf 1c3e 762a 11bf
00000150: 5e26 80be dd2c 90be 124e dabb 07f9 283e
00000160: 0b4d 8d3e 86f7 3fbf f06e d93d 3acb 0d3d
00000170: e69b debe 6ae7 1c3f 8dad b1be 6bd2 76bf
00000180: 8992 7ebe a094 0938 5b27 66bf 8d4b 8ebd
00000190: b324 86be a4ba 543d b93b 25be 543e 00bd
000001a0: 178c 6e3d 52c4 50be 47df 84bd 7d79 523e
000001b0: 8632 17bf 6f89 45bf b84a 15bd 2e8f 11bf
000001c0: 68a6 d93e 73f1 a4bd 0dc0 1abf 0887 a43c
000001d0: e6bd 9bbf 2103 5ebe e64b da3d 79b3 013f
000001e0: 0d9d e0bf e72a 9e3d 6c20 fabc b4d4 893d
000001f0: 19ca d3bc 1aa5 5b3d cf13 8abf c061 533e
00000200: a3f7 5c3d eef2 383d e9ed a43c a4be 19bf
00000210: 6e46 8bbc 017d b3be c2a5 8c3d 2e8c c1bc
00000220: b6de 87bc b6a0 05bf ec52 adbe 5ce5 52bf
00000230: 5f47 f43e 14e4 2e3e 86f6 983e eead d5bd
00000240: 33d1 053e e827 bb3b 7938 35be aa87 0b3f
00000250: e83a 383e 5303 bcbe 928a 013f fd07 cdbd
00000260: 4f57 4cbe 3521 5f3e 01c5 df3e 2051 c1be
00000270: 9632 0f3f 841d 013d b678 fa3d a76a 59be
00000280: 30cb 93bf a411 d5bd b1d6 0d3d 8e97 5cbe
00000290: c9fa 603f b7f3 4fbe 3b2b 42bf 5c7c 373e
000002a0: 2541 8f3e e537 113f c910 ffbd 3d2d d6bd
000002b0: 4792 b4be d1b8 bbbd 3890 023f 4b52 63bf
000002c0: f805 50bc 0de8 96be 0e04 60bf 29ce e2bd
000002d0: b702 393e e5ec 4dbf 7ed2 dfbd dd45 343d
000002e0: e29a d73d 5130 e43e c3f8 5fbf 4aa0 15be
000002f0: 8847 ffbc 7182 bd3d e39a 90bc 160e 52bd
00000300: b6e1 4dbd 60c7 603d d9c2 31bf 677f 0a3d
00000310: 318a 403e b459 b8be c900 a7be ad12 453e
00000320: 84bc 0d3d b7c8 00be d20b aabd 1b4e 293d
00000330: e9f4 ebbd 8f9f 81be 3c41 a8be dbdd d63d
00000340: 30b6 b8bc e62e 403e dc0f 9bbe ce41 103e
00000350: 03dc 5bbe 59f5 9dbd 77f2 14bf 5ae1 98be
00000360: 881f 323f e0c1 80bc 1217 bdbe 83a4 08bd
00000370: 10fb 50be 781a 0ebd 0866 5d3e 8aca 71bd
00000380: d69b 22be 4ccf dcbd 0932 efbd 7258 96bf
00000390: 2ddd 8ebc ee27 a7be b7db 11be ffbe a6bd
000003a0: 7897 0b3f 9b35 9b3e 8d2a 9ebe 279a 9fbf
000003b0: 57e6 5b3f 3dc8 c53a 13f9 a7be 4db8 35be
000003c0: d57d 81bc 06e8 de3e 4e62 c7bc d079 bfbc
000003d0: 0ca3 34bf 5cd8 cabf 6309 11be e444 4ebe
000003e0: 3ef3 063d aba7 87bd afea 7ebe e0a9 cbbe
000003f0: 34b4 963e 4172 aabe c20a 5abe 9598 37bf

linear2.bias f4 [3]
-0.10052034 0.12423001 0.038669568
00000000: 9cdd cdbd 4e6c fe3d fb63 1e3d
